models/model_ambulance_siren.tflite (tflite, 8252 bytes, 6 tensors)

arith.constant2 f2 [16, 16]
00000000: 1e96 1331 db30 992a 12b4 77b6 d1ad 81ac
00000010: 1834 c437 a936 62ae e6a9 13b2 3d38 bcb5
00000020: 42ac 44b5 2135 3ba6 0fb5 85b4 5eb3 82b5
00000030: 6e36 15b3 c131 7db2 0eae 4133 6530 f427
00000040: cc30 4836 7ab6 b729 7b2e 73b4 cb34 c3b1
00000050: f32c 6f35 adb5 bb35 d52b f022 0435 7f28
00000060: aa32 6636 2196 912a 5bb4 242d 57b0 1d32
00000070: 46ac 7d34 0a2e 2932 02b6 529b 4634 24b1
00000080: f72f 2734 9a36 b032 92b0 bd2f be30 20b0
00000090: c3b2 2eb0 f5b4 bbb1 0b37 05b4 a9b2 b734
000000a0: 7d36 8baa 21b0 c5b1 8cb5 9f33 b5b4 45b6
000000b0: 2332 e3b4 ceb4 fdb0 71af 60b2 5d36 8135
000000c0: 782e 1ab1 99b1 8734 b42d a32d 85ae b1b6
000000d0: 1533 13b1 dcb0 21b4 4935 f735 372b 74b5
000000e0: afab 3325 6a31 afb3 f1b1 09b0 6431 7836
000000f0: 2db5 4834 1f35 48b6 4ab6 3aad 6d32 d835
00000100: bdb5 7fb3 aeb0 af33 2330 edb1 12b6 f6b4
00000110: 6530 62af 24b1 f72a 0ab2 ec36 86b5 53b4
00000120: afb3 0e36 39aa dfb6 44b0 91a1 7531 4e34
00000130: f8a4 2c2e 54b1 3a35 9230 9835 c3a5 9f36
00000140: dab6 53b4 5a36 0a30 8fb2 76b4 76b4 5bab
00000150: f1b3 f234 db34 9f2b 9936 a92f 4636 9033
00000160: f734 0334 4f2d ff34 eab2 4833 38b2 5f35
00000170: 5fb6 3636 70b2 9fb4 9fb3 efb5 ef32 8132
00000180: 6532 19ab 7cb0 aab1 c0b5 f234 21b0 dcb1
00000190: 5131 22b6 1c31 11b2 4cad b8b6 4f36 11ac
000001a0: 0f34 27b1 96b1 11b2 98b4 2e34 adb5 eeaf
000001b0: 9a1d a71d 3d9d b636 70b6 5f2e 5332 dc35
000001c0: 0535 74ad da2d 8735 5930 9cb1 21aa e7b0
000001d0: c735 e822 5333 8fa2 b536 3f35 42b1 bca9
000001e0: b634 0636 6caf 9635 2ab5 a5b5 f334 c731
000001f0: 0d36 5b30 44af 5736 d131 f324 1d34 bcb4
-0.001493 0.1586 0.1517 0.05154 -0.2544 -0.404 -0.0909 -0.0704
0.2559 0.4854 0.4163 -0.09973 -0.04608 -0.1898 0.53 -0.3584
-0.0665 -0.329 0.3206 -0.02434 -0.3162 -0.2825 -0.2302 -0.3442
0.4019 -0.2213 0.1798 -0.2028 -0.0946 0.2267 0.1373 0.03107
0.1499 0.3926 -0.4048 0.04465 0.10126 -0.278 0.2996 -0.18
0.07733 0.3396 -0.3547 0.3582 0.0612 0.01355 0.3135 0.03513
0.2083 0.4 -0.001496 0.0513 -0.2722 0.0803 -0.1356 0.191
-0.0668 0.2805 0.09436 0.1925 -0.3755 -0.003574 0.267 -0.1606
0.12445 0.2595 0.4126 0.209 -0.1428 0.1209 0.1482 -0.1289
-0.2113 -0.1306 -0.3098 -0.1791 0.4402 -0.2512 -0.2081 0.2947
0.4055 -0.05112 -0.129 -0.1803 -0.3467 0.2382 -0.2942 -0.3918
0.1918 -0.3054 -0.3003 -0.1559 -0.1163 -0.1992 0.3977 0.344
0.1011 -0.1594 -0.1749 0.283 0.0891 0.0881 -0.10187 -0.4182
0.2213 -0.1586 -0.1519 -0.258 0.3303 0.3728 0.05637 -0.3408
-0.06003 0.02031 0.1692 -0.2401 -0.1857 -0.1261 0.1685 0.4043
-0.3235 0.2676 0.32 -0.3926 -0.393 -0.08167 0.2008 0.3652
-0.3586 -0.2343 -0.1462 0.2401 0.1293 -0.1852 -0.3794 -0.31
0.1373 -0.11536 -0.1606 0.0544 -0.1887 0.4326 -0.3452 -0.2703
-0.2401 0.3784 -0.0486 -0.4294 -0.1333 -0.01087 0.1705 0.269
-0.01941 0.09644 -0.1665 0.3267 0.1428 0.3496 -0.0225 0.4138
-0.4282 -0.2703 0.397 0.1262 -0.205 -0.2788 -0.2788 -0.05746
-0.2482 0.309 0.3035 0.05954 0.4124 0.1197 0.392 0.2363
0.3103 0.2507 0.08295 0.3123 -0.2161 0.2275 -0.1943 0.3357
-0.3982 0.3882 -0.2012 -0.2888 -0.2382 -0.3708 0.2167 0.2032
0.1998 -0.05545 -0.1401 -0.177 -0.3594 0.309 -0.129 -0.1831
0.1661 -0.3833 0.1597 -0.1896 -0.08276 -0.42 0.3943 -0.06354
0.2537 -0.161 -0.1746 -0.1896 -0.287 0.2612 -0.3547 -0.1239
0.00547 0.00552 -0.005116 0.4194 -0.4023 0.09955 0.1976 0.3662
0.3137 -0.0852 0.09143 0.3455 0.1359 -0.1753 -0.04788 -0.1532
0.361 0.01349 0.2289 -0.01281 0.4192 0.328 -0.1643 -0.0448
0.2944 0.3765 -0.11597 0.349 -0.3228 -0.3528 0.3093 0.1805
0.3782 0.1361 -0.1135 0.3962 0.1818 0.01933 0.257 -0.296

arith.constant3 f2 [2, 16]
00000000: a83b cab5 5d34 9233 37b4 76b6 f2b8 3bb7
00000010: 6938 0531 9cb4 e02d 7337 70b6 9221 6032
00000020: a9b9 6035 cfa4 e02e 4a35 74b6 622e 2b32
00000030: 3c32 8d24 40b7 8d34 4528 ebb6 4608 5cb0
0.957 -0.3618 0.2727 0.2366 -0.2634 -0.4038 -0.618 -0.452
0.5513 0.1569 -0.288 0.0918 0.4656 -0.4023 0.01088 0.1992
-0.7075 0.336 -0.01878 0.1074 0.3306 -0.4033 0.09973 0.1927
0.1948 0.01778 -0.4531 0.2844 0.03336 -0.4324 0.0001304 -0.1362

arith.constant4 f2 [3, 1, 13, 1]
00000000: ea2c 3835 ce35 4332 4635 e22c e9b0 8899
00000010: 5fb4 3bac e1b4 c1b1 7da9 d2b0 33b5 d3ae
00000020: e333 8bb4 57ab a730 3434 70b5 b0b5 3da8
00000030: ccb1 f4b1 bc32 48b0 15b1 8632 e829 42b2
00000040: 49ad c1b2 8130 9fa2 73b4 acb4 3730
0.0768 0.3262 0.3628 0.1957 0.3296 0.0763 -0.1534 -0.0027
-0.2732 -0.0661 -0.305 -0.1798 -0.04288 -0.1506 -0.325 -0.1066
0.2465 -0.284 -0.05734 0.1454 0.2627 -0.3398 -0.3555 -0.0331
-0.1812 -0.186 0.2104 -0.1338 -0.1588 0.2039 0.04614 -0.1956
-0.0826 -0.211 0.1407 -0.01293 -0.278 -0.292 0.1317

arith.constant5 f2 [16, 1, 11, 3]
00000000: 67ac dab0 422c 042f d3a9 91ac 4c20 24ae
00000010: fda4 4f31 c4ad 9f30 c3a2 4629 faad c5a1
00000020: b929 47b0 3f32 22af 212c 45b0 06b1 0bab
00000030: f72c 8db0 65a8 ac30 1db0 b1ab 91ad 1e2f
00000040: 24a4 0dac fab0 abab 98b0 ce1f a8ac 382d
00000050: 5b2c 13a8 e92c 23ac 4da5 63b1 7230 1eb0
00000060: 7c2d 2a22 f230 8bae 95a4 152f d1b0 f92d
00000070: 4bab 05af 1aa6 be2e 77b0 e0af fd2e 7da6
00000080: f11e 809e f71e 06b1 b5b1 7b25 c2ab 482f
00000090: 5e2c 62ac 6aa3 9ca8 e2a6 61ac 9525 7a8d
000000a0: 64a7 9ba9 7e2f abb1 a42a 6f31 4030 2eae
000000b0: 27ab 78b0 8f2a ce25 9b26 eba3 a78b 45aa
000000c0: 4ca1 c1b0 89a0 da29 b7a8 742e eea8 ed2e
000000d0: dfad 05a9 48ac 22b1 682e c419 36ae 2f28
000000e0: 28ae 5cb0 5dab 462d 202e a32b 5029 692a
000000f0: a628 3332 d1a0 d530 e92e a52a 01ad d9ac
00000100: 98b0 5d31 4aaf 8eac b5b0 baad 08a5 6ea8
00000110: 562e 88a9 852b 2225 62af cc25 a1b0 4b2c
00000120: 3230 662d 4daa 7728 01a9 27b3 d2a3 0932
00000130: 81a1 9da4 b1a9 1b2c 43b0 f8a1 31b0 cba3
00000140: 6ab1 0524 16b1 13ae b122 ed9d 1f31 4330
00000150: 3030 5d2e 272d 962d 2d2c 02aa 1eac 092a
00000160: 691c 68a7 abae 09b1 28a6 d2ac a198 8ba5
00000170: 09af a7af 95a6 46b2 5cb1 cbaa b5b0 f8a4
00000180: 7131 6bb2 aab1 f22b a8b2 e5ad 8c2e 59b0
00000190: 39b0 01b2 942f e3b1 0931 f227 1c2d 8d31
000001a0: e329 6a24 5eac 1c1b 98ae b4ac eaa9 d32d
000001b0: ddb0 6e2e 6e2e feaf 112f cc2e f2ac a024
000001c0: cf29 bd30 592c a5ae 762a 63af dda9 31a4
000001d0: 71ae 2ca9 8eb0 4629 1a9a 00b1 d82d 9eb0
000001e0: 9dac 7a30 842f 81a8 652c 0ab2 4a27 2fa6
000001f0: 97aa 0428 4730 36af daaf 7e9f 6c29 20b1
-0.0688 -0.1516 0.0665 0.1096 -0.0455 -0.07135 0.00839 -0.09595
-0.01949 0.1659 -0.0901 0.1444 -0.01321 0.0412 -0.0934 -0.01127
0.0447 -0.1337 0.1952 -0.11145 0.0645 -0.1334 -0.157 -0.05502
0.0776 -0.1422 -0.03433 0.146 -0.1285 -0.0601 -0.087 0.1112
-0.01617 -0.0633 -0.1555 -0.0599 -0.1436 0.00762 -0.07275 0.08154
0.06805 -0.03183 0.0767 -0.06464 -0.0207 -0.1683 0.1389 -0.1287
0.0857 0.01204 0.1545 -0.10223 -0.0179 0.11066 -0.1505 0.0933
-0.05698 -0.1097 -0.02383 0.10535 -0.1395 -0.12305 0.1092 -0.02534
0.00678 -0.006348 0.0068 -0.157 -0.1783 0.02141 -0.0606 0.1138
0.06824 -0.0685 -0.01448 -0.036 -0.02689 -0.0684 0.0218 -0.0003343
-0.02887 -0.0438 0.11707 -0.1771 0.05188 0.1698 0.1328 -0.09656
-0.05588 -0.1396 0.05124 0.02267 0.0258 -0.015465 -0.0002335 -0.04898
-0.010345 -0.1486 -0.00886 0.04572 -0.03683 0.1008 -0.0385 0.1082
-0.09174 -0.0392 -0.0669 -0.1604 0.1001 0.002815 -0.09705 0.03268
-0.0962 -0.1362 -0.05753 0.0824 0.0957 0.05966 0.0415 0.05008
0.03632 0.1937 -0.00941 0.151 0.108 0.0519 -0.0782 -0.07574
-0.1436 0.1676 -0.1139 -0.07117 -0.1471 -0.0895 -0.01965 -0.0346
0.099 -0.0432 0.05875 0.02005 -0.11536 0.02264 -0.1447 0.0671
0.1311 0.08435 -0.04922 0.03488 -0.0391 -0.2235 -0.015274 0.1886
-0.01075 -0.01802 -0.04446 0.06415 -0.1332 -0.01166 -0.131 -0.01522
-0.1692 0.0157 -0.1589 -0.0949 0.01307 -0.005787 0.16 0.1332
0.1309 0.0994 0.0805 0.0873 0.06525 -0.04694 -0.06433 0.04715
0.004307 -0.02893 -0.1042 -0.1573 -0.02405 -0.0753 -0.00226 -0.02165
-0.1099 -0.11957 -0.02571 -0.196 -0.1675 -0.05307 -0.1471 -0.01941
0.17 -0.2006 -0.177 0.06207 -0.208 -0.0921 0.1023 -0.1359
-0.132 -0.1876 0.1184 -0.184 0.1573 0.03104 0.07983 0.1735
0.046 0.01724 -0.06824 0.003471 -0.103 -0.0735 -0.0462 0.091
-0.152 0.10046 0.10046 -0.1249 0.1104 0.1062 -0.0773 0.01807
0.04538 0.1481 0.06793 -0.1038 0.05048 -0.1154 -0.0458 -0.01637
-0.10065 -0.0404 -0.1423 0.0412 -0.00298 -0.1562 0.0913 -0.1443
-0.0721 0.1399 0.11743 -0.0352 0.06866 -0.1887 0.02847 -0.02415
-0.05148 0.03137 0.1337 -0.1127 -0.1227 -0.007317 0.04236 -0.1602

arith.constant12 f2 [16]
00000000: 1921 eea2 6f21 e425 a324 4722 8ea5 23a6
00000010: 9e9d d2a3 4aa5 9fa1 ff25 22a5 caa2 c4a4
0.00996 -0.013535 0.01061 0.02301 0.01811 0.01226 -0.0217 -0.02397
-0.005486 -0.015274 -0.02066 -0.01098 0.02342 -0.02005 -0.01326 -0.01862

arith.constant13 f2 [16]
00000000: 8430 0000 e6a2 f8a4 f522 4b82 2223 cd9c
00000010: 0000 f2a2 2da3 eb22 05a4 0000 22a3 00a3
0.1411 0.0 -0.01347 -0.01941 0.01359 -3.5e-05 0.01393 -0.00469
0.0 -0.013565 -0.014015 0.01351 -0.0157 0.0 -0.01393 -0.01367
